mnist_full_model.pth (torch, 409591 bytes, 4 tensors)

fc1.weight f4 [128, 784]
00000000: 3733 8fbc 639c fbbc 5067 be3c f8d5 d6bb
00000010: 8199 eebc 663d f73c d8c1 0ebc d4f8 d4bb
00000020: a0c1 b33a c04e 20ba 10e2 77bb de88 833c
00000030: 2715 873c 4d6e 193d 047c 10bd 78bc 8d3c
00000040: c00d bbbb 7862 453c 9c30 913c 7c77 993c
00000050: 14d1 543c 2b23 083d c804 cb3c 1623 a93c
00000060: 0e9c bb3c 243c 2a3c a0a3 333b 3060 9f3b
00000070: 4015 1cba 66ea 67bc 683a 533c 0cb0 813c
00000080: 9487 6239 38e8 83bc 6074 87bd eaab 88bd
00000090: 07b2 52bd b4b0 07bc c7f3 473d 250c 7cbd
000000a0: 1dad 51bd 73d6 3a3d 8a88 9f3d cb5e f9bd
000000b0: 79cc 26be db06 f2bd 6aad f73c 6973 debc
000000c0: dbec 01bc dfae d6bc b2f1 51bc b09a 7cbd
000000d0: 98ba dabc c09c bdbc 182c 823b 5d24 023d
000000e0: 8013 cdbc e6c6 ce3c a661 24bd c0b4 bcbd
000000f0: c90c a4bd 7e79 02bd 388f 34bd 5d6b 63bd
00000100: fc83 62bc 855d 84bd c0b4 69bd 8d0e 683c
00000110: c6a5 c73d 6615 d43d 17bf 7d3d 9e4e 953c
00000120: 091d c8bd 03cd a7bc 62c9 1cbd ae36 1c3d
00000130: 18ca 9c3c 5b06 9f3c 0ca8 df3c e8f6 c1bc
00000140: 2d49 73bd 64cf 85bd 57fd 02bd a906 0d3d
00000150: 4046 9fbc 5cbb afbb 1b5e acbc 6612 c4bd
00000160: 2ee7 abbc 732b 59bc 6a45 99bc 7685 d0bc
00000170: 4c21 82bd 9d0e ecbd d911 71bd a461 aa3c
00000180: 6165 09ba 4bbd 71bd b906 c6bc d489 f8bd
00000190: afc6 1ebe b922 05be b5c2 1dbd d0cb 20bd
000001a0: c082 d93c 4bf9 973d d052 243e 75d9 223d
000001b0: 420b 683b 6770 123d 5b68 e73d 4000 faba
000001c0: 20bb 7dbb a420 103c a840 65bd d26f db3c
000001d0: 82bc 17bd df02 b6bd aa34 e6bd 93b9 c0bd
000001e0: 7a8c 2dbe 3a8f dfbd 6e19 cbbd 4000 86bd
000001f0: 70ce 10bd a46d 94bd 30c8 81bd d93e acbd
00000200: a080 e9bd 91ae 50bd 1c0c acbd d469 57bd
00000210: 5491 e53c 4f9b a13d 20c2 b73d 8570 1a3e
00000220: 7550 0e3e 1d68 b13d 0528 97bd 509a cdbc
00000230: 80ff 16bc 2ad9 f9bc 65de 1cbe 1e80 b3bd
00000240: a557 8cbd 52a9 08be 0d41 8ebe 974a 84be
00000250: 6aea 51be a90d 14be a011 06be e242 58bd
00000260: 1d0f 78bc 0df6 973c 102a 03bd 5da6 b8bd
00000270: c915 d2bd afd4 3cbd 1f49 5ebd 25b3 97bc
00000280: ca79 b23c 94c2 c53a def0 92bc 743e 273d
00000290: 5c2d 1b3e 598e 823d 187c 3d3c b054 173d
000002a0: 4e2b 0abd 695d babd 8393 893c 9dcc 1bbe
000002b0: 9128 6cbd ec84 5dbd e63a 5ebe 333d 5bbe
000002c0: 66c8 2cbe 3a6d 9cbd c491 abbd 2497 35bd
000002d0: 8f91 0b3d dc5d 51bb f80d d23c 9ce1 7abd
000002e0: d838 9cbd 93e3 3bbd a193 76bd c8b3 20bc
000002f0: 6e79 fc3c 341f 8c3c f03a 953c 066e 653d
00000300: b6ba d83d a34b 2c3e d7a7 fc3d 4b76 103d
00000310: bfd9 e93b b7cc aebd e7d8 8cbc 0659 91bd
00000320: 0959 03be f039 38bd 9321 eabd 35d5 35be
00000330: 60ef b4bd 0c64 583b 1660 cf3c 27c7 813d
00000340: 49f5 693d bf08 563d 3fa9 023c 14c3 24bd
00000350: 2c6f 83ba a027 493b aad1 2b3d a12e 7a3d
00000360: 2adc f73d be81 043e 7354 0a3e a08f a03d
00000370: 0bec 143e d20b 263e 5aea 363e 90e8 383c
00000380: bdfd 00be 54c7 78bd 665b 183c 5017 6ebd
00000390: c832 d8bd 4c18 c9bc e0c9 883b a689 10bd
000003a0: 0e48 77bc 0012 1937 0c76 f93b 7a18 e53d
000003b0: ba0a 413d 397a 89bc 06b1 9ebd 5fa9 8dbd
000003c0: 7efa 49bd beb4 4cbb 0c71 4d3d 4e41 553d
000003d0: ae93 0b3e ab6a 293e 3906 d63d 7674 b63d
000003e0: bef3 1a3e f13e 523e 986d bb3d f4c4 5fbb
000003f0: 194f 7bbc 4b2b 11bd e7fb 0bbe 7ea6 62be
-0.017480476 -0.03071422 0.023242623 -0.006556269 -0.02912593 0.030180644 -0.008713208 -0.006499389
0.0013714321 -0.000611525 -0.0037823953 0.016056474 0.016489578 0.037458707 -0.03527452 0.017301783
-0.0057084262 0.012047403 0.017723374 0.018733732 0.012989301 0.033236664 0.024782553 0.020646613
0.022901561 0.010390315 0.002741076 0.0048637614 -0.0005954094 -0.014155006 0.012892343 0.015831016
0.00021603546 -0.016101941 -0.06613994 -0.06673415 -0.05143931 -0.008281875 0.04881647 -0.06153502
-0.051190484 0.04561467 0.07789715 -0.121762834 -0.16288938 -0.11817714 0.030234057 -0.027154641
-0.007930006 -0.026206432 -0.012813972 -0.06167096 -0.026700303 -0.023146033 0.0039725415 0.03177296
-0.025033712 0.025241327 -0.040132187 -0.09214163 -0.08010251 -0.031854145 -0.044081897 -0.05552231
-0.013825413 -0.0646315 -0.057057142 0.014163625 0.09748416 0.10355644 0.061949816 0.018225964
-0.09771163 -0.0204835 -0.03827799 0.038138084 0.019139335 0.01941221 0.02730181 -0.023677304
-0.059395958 -0.06533697 -0.031979885 0.03443018 -0.019442677 -0.005362911 -0.021040967 -0.09573822
-0.020984259 -0.013254988 -0.018709857 -0.025454264 -0.06354007 -0.11526225 -0.05885491 0.020798512
-0.0005241242 -0.059018414 -0.024173127 -0.12135664 -0.1550548 -0.13001527 -0.038515765 -0.03925687
0.026551604 0.07420596 0.16047215 0.039758164 0.00354071 0.035751726 0.11299201 -0.0019073561
-0.0038716272 0.008796845 -0.055969864 0.026786719 -0.03704501 -0.08887266 -0.112405136 -0.094103955
-0.16948119 -0.1091599 -0.0991696 -0.065430164 -0.035353124 -0.07247475 -0.06337011 -0.08410425
-0.114014864 -0.05094773 -0.08400747 -0.05259116 0.0280234 0.07890951 0.08972573 0.15081985
0.1389788 0.08662436 -0.0738068 -0.025097996 -0.009216189 -0.03049906 -0.15319212 -0.08764671
-0.06852654 -0.1334584 -0.27784005 -0.25838158 -0.20499578 -0.14458336 -0.13092661 -0.05279816
-0.015140322 0.018549943 -0.032022536 -0.09016106 -0.102580614 -0.04610127 -0.054268952 -0.01851804
0.02178659 0.0015087896 -0.01793712 0.040831044 0.15154022 0.06374807 0.011565231 0.036946
-0.033732705 -0.09099848 0.016793972 -0.15214773 -0.057655875 -0.054081842 -0.21702155 -0.21410064
-0.16873321 -0.07638021 -0.08377412 -0.044333592 0.034074362 -0.0031946814 0.025641426 -0.061250314
-0.076280296 -0.04587133 -0.060199384 -0.009808488 0.030819621 0.017104723 0.01821658 0.05601313
0.10582487 0.16825728 0.123367004 0.035269063 0.007136553 -0.0853514 -0.01719327 -0.07097058
-0.12826933 -0.04497713 -0.11432185 -0.17757113 -0.0883472 0.0033018617 0.025314372 0.063368134
0.057118688 0.052254435 0.007974922 -0.040225103 -0.0010027639 0.0030693784 0.041947998 0.061079625
0.1210254 0.12940118 0.13508777 0.07839894 0.14543168 0.16215447 0.17862836 0.011285916
-0.12596793 -0.06073697 0.009299135 -0.0581277 -0.10556561 -0.024547718 0.004174456 -0.03528752
-0.015092863 9.123702e-06 0.0076129492 0.11186309 0.04712937 -0.016781913 -0.07748608 -0.069170706
-0.049311154 -0.003123566 0.050156638 0.052064233 0.13630554 0.16544597 0.10450406 0.08908932
0.15132043 0.20531823 0.09151763 -0.0034144493 -0.015338683 -0.035441678 -0.13670312 -0.22133824

fc1.bias f4 [128]
00000000: ea4b 163e 6598 0cbd 2094 b3bd 4726 81bc
00000010: 82a3 a7bd ec37 d5bc 738a 373d 391c 99bc
00000020: d576 b2bd 2110 103c 8aab d03b c44e 13bd
00000030: 119a a73d 0c73 0d3e 6139 053d fa5e fbbc
00000040: 8535 02bb e2ca b2bd ac2f 1a3e 05c5 8d3d
00000050: 0c6c 653d 10fd 81bd 3a44 433d 0925 0f3e
00000060: e490 7b3d 4e9d f03d d188 783d 9eb6 293e
00000070: 8053 61bd 15af 373e 283e 2fbd d9d3 483d
00000080: 7125 8cbc e227 1ebd 08bc dc3c c42f 103d
00000090: ba55 ab3d 372c 883c c93e dbbb 66a3 153d
000000a0: 3bbf 0b3d 2183 24bd 47fb 713d 256d f4bb
000000b0: 1f10 a23d 75c0 57bd b5c4 ab3d 17bf 2c3e
000000c0: 3ff2 983d d0da 0dbd ae93 84bd 67b6 e83c
000000d0: 89d0 88bc 8864 a8bc b3ca 0abd 6dcf bbbb
000000e0: b718 9dbc 6581 573d ca96 95bb 1790 6cbd
000000f0: 72bf 243e dc1c 3b3e 3f46 db3d 0d29 8ebd
00000100: 89f2 223e 4a77 013e 38f2 8c3d 6423 f23d
00000110: dc02 0b3e 8e19 ca3d 16dc a1bc 6dbd aabb
00000120: aa23 de3d 285a 953d 6ed3 363e 3986 953d
00000130: 9e0e 0d3e 1364 4cbd 839c d93d ee91 ad3c
00000140: 4e36 df3c 6864 1c3e 5312 943d 1958 d23d
00000150: 2e36 1e3d bf4b ab3d 383f 3f3d e247 483d
00000160: f9b6 bb3d 5c81 543d accb 9c3c f105 173d
00000170: 1f78 143e f2f1 93bd 5499 b83d 06b3 043e
00000180: b912 f53b df35 353d 4f34 833c 4dd9 b0bc
00000190: 9098 4f3d c580 8dbc fe3b 84bd 3f92 ce3b
000001a0: b119 f7bd f08e ef3c ae01 f43d ca61 78bc
000001b0: 2b72 0dbd 0d00 81bc f3c0 053e 0411 26bd
000001c0: 8154 cb3a 8768 a53d 5e7d 413c 81b5 9f3d
000001d0: aa08 8c3d 2b67 a7bd fc62 d0bc 8c03 853c
000001e0: 9cfd 713c 2c87 d23c 14f8 1ebb 5c10 babd
000001f0: eaba 613c 13de 40bc a29a 283c de94 33bd
0.14677396 -0.034325022 -0.08768487 -0.015765322 -0.081854835 -0.026027642 0.04480977 -0.018690215
-0.08714072 0.008792908 0.0063681053 -0.03596379 0.08183683 0.13813418 0.032525424 -0.030684937
-0.0019868326 -0.08730103 0.15057248 0.06922344 0.056011245 -0.06347096 0.047672488 0.13978972
0.061417475 0.117487535 0.060677353 0.16573569 -0.055011272 0.17937882 -0.042783886 0.04903016
-0.017107697 -0.038612254 0.026945129 0.035201803 0.083659604 0.016622646 -0.006690834 0.036532782
0.03411792 -0.040164117 0.059077527 -0.0074593 0.07913231 -0.052673776 0.08387128 0.1686977
0.0746808 -0.034632504 -0.0647348 0.028407289 -0.016701 -0.02055575 -0.033884715 -0.005731514
-0.019176824 0.052613635 -0.0045650946 -0.057754602 0.16088656 0.18272728 0.10706758 -0.069414236
0.15912832 0.12643161 0.06882137 0.118231565 0.1357531 0.098681554 -0.019758265 -0.0052105696
0.10846646 0.072925866 0.17854092 0.073009916 0.13775107 -0.049900126 0.10625555 0.021187749
0.027247574 0.15272677 0.072300576 0.102707095 0.03862589 0.08364057 0.04669115 0.048896678
0.09165759 0.05188118 0.019140087 0.0368709 0.14498948 -0.07223882 0.0901362 0.12958917
0.0074790386 0.04424083 0.016016154 -0.021587992 0.050682604 -0.017273316 -0.06456755 0.006304055
-0.12065447 0.029242963 0.11914383 -0.0151600335 -0.034532707 -0.015747095 0.13061886 -0.04054357
0.0015512855 0.08076578 0.011809675 0.07798291 0.0683759 -0.081739746 -0.025437824 0.016237043
0.014769938 0.02569922 -0.0024256753 -0.090851516 0.013777474 -0.011771697 0.010290774 -0.043843143

fc2.weight f4 [10, 128]
00000000: 2171 68be a939 13bd e85f f63c 9736 053c
00000010: daae 523d 8788 653d c3d5 ecbc d10f a63d
00000020: 1332 a43d b86c 0bbf 5402 c4bd fd6d 013e
00000030: b5a2 e9bd d88b cbbd 862c 073e d5ec 173c
00000040: 3baa c23d 8046 803d 9f03 2dbe 9b77 ab3d
00000050: c055 063e 1735 46be a137 b2be 6524 89bd
00000060: 7da5 0fbe b982 203e af3c ec3d 6485 4e3e
00000070: f1c4 d7bd cb37 8ebd 43b8 5e3d 58f7 d6be
00000080: fae1 2f3e ec6a 13be f948 943e a649 b7be
00000090: 7e31 9abe e7f3 dcbe 50f8 0d3e 8d56 29be
000000a0: ea4a debd 1615 b2bd eb3b b4bd 4e87 03be
000000b0: f87c 2b3e c3d4 9b3d e42e b13d 46d2 c1be
000000c0: 745c b5bc 7d90 36be f3d8 733d a1e0 b2be
000000d0: a0c0 8dbc a1a4 e4bd d9e2 303e bdd3 7bbe
000000e0: e8c1 8cbd 4c67 c5bd e437 9dbe ffe5 183e
000000f0: d30b 6a3d 4a42 643d 4deb 3fbf 4264 a83d
00000100: 6c17 b4be 1efa 04bc faad 9bbd 06e0 a43d
00000110: e3a2 b2bd df05 60be 120a fc3d 8611 833c
00000120: 8c2f 7dbe 1e8b 013d c7ec c1bd a743 243d
00000130: 21f0 81be 3756 5d3c ba00 07bd 18e9 b3be
00000140: 2eb1 0abe 4112 94be bd85 c23d 81c9 31bc
00000150: 2d7d 16bf 9d10 d93d 92fd c33d f12e 023e
00000160: 62cb 5a3e b4d1 53be 1108 e13c a010 62be
00000170: 6576 203d 4ef0 20be 7f09 943d 1f0a aabc
00000180: 3e2a 8a3e b75d 9dbd e12d 8e3e 027c 243c
00000190: f197 c23d 45d8 1cbc 646d a5be e254 85be
000001a0: 94aa cc3d 7c1c b13d 0355 19be 8e0b 813e
000001b0: c147 df3d c7d6 8e3b 72c0 33bd c2cc 99bc
000001c0: 1681 0e3d 71ae adbd 4805 cf3d 75d4 69be
000001d0: 5410 e5bd 0243 6cbd 4f41 163e b42f 3d3e
000001e0: 07f3 b0bd 1ffe bfbd 9eaf f3ba 3657 043e
000001f0: 26d7 a2bc ccf8 fe3c 073a cbbd 36bc c43d
00000200: 5347 3dbd fc1a 07bd 1cd0 69bc 89f6 593d
00000210: bee6 45be fb45 cfbd 0e66 43be b471 bdbd
00000220: ca22 07be dd06 98bd 9cbc ff3d 9623 ee3d
00000230: 182a fc3d d60e 843d 4dd9 dfbd 00d1 54be
00000240: b3b8 62be 0a53 18be 245e bf3d 6c0d 4cbd
00000250: a175 283e ef3d 1abe e2db b73e 6bbf 893e
00000260: 2ef3 08be ef6c 9abe ea1e 083e 77c3 0d3f
00000270: a538 fc3d f09f 2c3e 1552 50be 705a 7c3e
00000280: ca1c f83d e374 813d 398c ad3d 15a2 a03e
00000290: a457 903e 7827 9b3e b69e 73be 77ab e33d
000002a0: 14d5 ffbd 6afa 92be 095f 053e 04f3 1cbd
000002b0: 39a3 1abd 1e02 45be 0eb5 933e ddbe bfbe
000002c0: f89a 02bf 4492 72bd 1a6d 5bbe 63be efbd
000002d0: 6260 93bd 9dba f7bd e1a0 16be 1fa0 ce3e
000002e0: f91f 513d 7394 253c f021 413d 1094 f9bd
000002f0: cf74 3ebe a891 803e a257 793d 943d dc3d
00000300: 3fdb c33d ec91 29be efb8 de3c de9b e8bd
00000310: 3b90 debd b6cd c53d 0808 3dbe c7e2 163e
00000320: 7356 1dbe f134 353e 2b39 d93c 7225 6abe
00000330: f502 973d a4df 66be db38 a93b 8e42 c03d
00000340: 04b3 53be fd75 2c3e 0992 473e 888d d6be
00000350: 0ffd 1dbe 46da 4a3e a012 533d 9491 77bd
00000360: 3fda 8dbe 31b9 673b 9a78 35be 210a 2c3d
00000370: f644 95be 768a 21bb 5677 9a3e 19ff a53d
00000380: af3b 6c3e d7a0 053e 55a8 a9be 0107 e03d
00000390: 99bf 89be 0c8c 333e 08bc acbc 41ed efbd
000003a0: 8ed4 5cbe a60a 44be 6bbb 213e 369a 953d
000003b0: 6f10 5dbe 2c0d 70be f295 16be b1cc 65be
000003c0: abb7 3a3d 0f71 92be 915e 94be 08f3 003e
000003d0: 1a36 a33d 02c7 01be c6ac ad3d 0d23 47be
000003e0: 4dfc f03c 9efe e0be bb2e c23d 5ce5 5fbe
000003f0: 54f7 df3d 3c35 0d3b 7fb4 9f3d e31f 05be
-0.22699405 -0.03594366 0.030075029 0.008130691 0.051436283 0.056038406 -0.028910523 0.081084855
0.080173634 -0.54462767 -0.095707566 0.12639613 -0.11407987 -0.099387825 0.13200578 0.009272774
0.09505125 0.06263447 -0.16895913 0.08372422 0.13118649 -0.1935619 -0.34808066 -0.06696395
-0.14027973 0.15674867 0.11535012 0.20168072 -0.105356105 -0.069442354 0.054374944 -0.41985583
0.17176047 -0.14396256 0.28961924 -0.35798377 -0.30115885 -0.43154833 0.13864255 -0.16536923
-0.108541325 -0.08695428 -0.08800491 -0.12844583 0.1674689 0.076089405 0.08651522 -0.37855738
-0.022138812 -0.17828555 0.05953307 -0.34937003 -0.017303765 -0.11164213 0.17274036 -0.2459249
-0.06872922 -0.09638843 -0.30706704 0.14931487 0.057140183 0.05572728 -0.74968415 0.08222248
-0.3517412 -0.008116273 -0.07601543 0.080505416 -0.087224744 -0.2187724 0.12306608 0.015999567
-0.24725169 0.031626813 -0.0946899 0.04010358 -0.25378516 0.013509325 -0.032959677 -0.35138774
-0.13544151 -0.28920177 0.09498165 -0.010851265 -0.58784753 0.10598872 0.09569849 0.12713219
0.21366647 -0.20685464 0.027469667 -0.22076654 0.03917541 -0.15716669 0.07228374 -0.02075678
0.26985353 -0.0768389 0.27769378 0.010039331 0.09501637 -0.009573047 -0.3231002 -0.26041323
0.09993473 0.08648011 -0.14973836 0.25204128 0.10902358 0.0043590995 -0.043884702 -0.018774394
0.034791075 -0.08480538 0.10108429 -0.22834952 -0.11184755 -0.05768109 0.14673351 0.18475229
-0.08640104 -0.093746416 -0.0018591767 0.12923893 -0.019877981 0.031124495 -0.09923177 0.09606211
-0.0462106 -0.03298472 -0.014270809 0.05321363 -0.19326302 -0.101207696 -0.190819 -0.09250203
-0.13196865 -0.07423184 0.12487146 0.11627881 0.12312716 0.06448142 -0.10930119 -0.20782852
-0.2214077 -0.14875427 0.09344128 -0.049817488 0.16451122 -0.15062688 0.35909945 0.26903853
-0.13374016 -0.30161235 0.13293043 0.5537638 0.123154916 0.16857886 -0.20343812 0.24643874
0.12114866 0.063211225 0.08474011 0.3137366 0.28191864 0.3030355 -0.23791012 0.11116689
-0.12491813 -0.28706676 0.13024534 -0.038317695 -0.037753318 -0.19239089 0.2884907 -0.37450305
-0.51017714 -0.05922152 -0.21428338 -0.11706235 -0.07196118 -0.120961405 -0.14709808 0.40356538
0.051055882 0.010106194 0.047151506 -0.12186444 -0.18599246 0.25111127 0.06087459 0.107539326
0.09563302 -0.16559571 0.027187793 -0.11357854 -0.108673535 0.09658377 -0.18460095 0.14734946
-0.15365009 0.17695977 0.026516518 -0.22865847 0.07373611 -0.2254625 0.0051642484 0.09387694
-0.20673758 0.16841884 0.19489302 -0.41904855 -0.15428565 0.19809827 0.051531434 -0.06044157
-0.2770557 0.0035358185 -0.17721787 0.042001847 -0.29154176 -0.002464918 0.3016917 0.08105297
0.23069642 0.13049637 -0.3313624 0.10938836 -0.2690399 0.17533892 -0.021085754 -0.117151745
-0.21565458 -0.19144687 0.1579415 0.07304804 -0.215883 -0.23442525 -0.14705637 -0.22441365
0.045585316 -0.28601882 -0.28978398 0.12592709 0.079693034 -0.12673572 0.084802195 -0.19446965
0.029417181 -0.43944257 0.094815694 -0.21864837 0.10935846 0.0021546623 0.07798099 -0.13000445

fc2.bias f4 [10]
00000000: 96b7 debc 5725 be3d 180a cf3c a592 97bd
00000010: c1f0 e93b 7e80 5b3d 302e 86bd 9079 8f3d
00000020: dcd9 00be 2e3a 58bd
-0.02718715 0.09284466 0.025273368 -0.07401017 0.007139296 0.053589337 -0.06551778 0.07005608
-0.12583107 -0.05278986
