mnist_full_model.pth (torch, 410743 bytes, 4 tensors)

weight f4 [128, 784]
0	0xbc3e0898	-0.011598729
1	0xbbebe600	-0.007199049
2	0xbc9577e3	-0.018245643
3	0x3a5b5e40	0.00083682314
4	0x3c82b4c4	0.015955336
5	0xbcbd2dc8	-0.02309312
6	0xbce64b18	-0.02811198
7	0xbcbe29d0	-0.023213297
8	0x3bde60c0	0.006786436
9	0x3ab9d940	0.0014179125
10	0x3d004a19	0.031320665
11	0xbc248fbc	-0.010044035
12	0xbd41fb68	-0.0473589
13	0xbb9b85e2	-0.0047461847
14	0xbd3fcaaf	-0.046824154
15	0xbd670b4a	-0.05640725
16	0x3cbb19a8	0.022839382
17	0xbcfceea8	-0.030875519
18	0x3a964120	0.00114635
19	0xbc267c8e	-0.010161532
20	0xbba60780	-0.005066812
21	0x3b89bdd0	0.0042035356
22	0x3c8458b2	0.016155574
23	0x3cb7450a	0.022371788
24	0x3ccae036	0.024765115
25	0x3c50e788	0.012750514
26	0x3c3e21c0	0.011604726
27	0x3b1ffdf0	0.0024412833
28	0x3b1b31a0	0.0023680702
29	0xbc57249c	-0.013131287
30	0xbc9e36d3	-0.019313252
31	0xbcac4b43	-0.021031981
32	0x3cbcafb6	0.023033004
33	0x3c255210	0.010090366
34	0xbc8b6485	-0.017015705
35	0x3cbf3aca	0.023343462
36	0xbceb8da8	-0.02875407
37	0xbcbcb277	-0.023034317
38	0x388e71f4	6.792313e-05
39	0xbcb0c21d	-0.021576935
40	0x3d5dda20	0.0541631
41	0x3d677182	0.056504734
42	0x3d86b347	0.06577163
43	0x3c9c7de7	0.019103004
44	0xbe412787	-0.18862735
45	0xbde76bdc	-0.112998694
46	0x3d84f83f	0.06492662
47	0xbd3ea679	-0.04654548
48	0xbbe96f54	-0.007123867
49	0x3dd4b87f	0.10386752
50	0x3da969c1	0.08272124
51	0x3c5644f9	0.013077968
52	0x3a3c3080	0.0007178858
53	0xbcaaab03	-0.020833498
54	0x3ccc929c	0.024972253
55	0xbc3dad7c	-0.011577006
56	0xbce5d1d3	-0.028054154
57	0x3ccfa460	0.025346935
58	0x3c30fbc8	0.010802217
59	0xbcf9692d	-0.03044566
60	0xbd869147	-0.06570678
61	0x3d2e2123	0.04251207
62	0xbd4d196c	-0.050073072
63	0xbda1b2f8	-0.07895464
64	0xbdb03b3c	-0.08605048
65	0xbe14d040	-0.14532566
66	0xbe5bfe92	-0.2148383
67	0xbe6eb8ad	-0.23312636
68	0xbdeb7031	-0.11496008
69	0xbdcc390c	-0.09971818
70	0xbdc868e9	-0.09785635
71	0x39a64622	0.0003171424
72	0xbd645bfb	-0.055751782
73	0xbda331cb	-0.07968482
74	0xbd2971ff	-0.04136848
75	0x3da56f09	0.08077819
76	0xbcc744e9	-0.024324851
77	0xbdbe642f	-0.09296452
78	0xbdda9d2a	-0.10674508
79	0xbe14ef25	-0.14544351
80	0xbdf01c3f	-0.117241375
81	0xbc105691	-0.008809702
82	0x3cf23592	0.02956656
83	0xbc9262aa	-0.017869312
84	0x3bf89950	0.0075866356
85	0x3c79abe0	0.015238732
86	0x3dc18d75	0.09450809
87	0x3d8d64a5	0.06903962
88	0x3da2fa35	0.079578795
89	0xbdfbd06c	-0.12295613
90	0xbd9e448a	-0.077279165
91	0xbde593dc	-0.112098426
92	0xbe14576b	-0.14486472
93	0xbde42790	-0.111403584
94	0xbdcf27cb	-0.10115012
95	0xbdd67cc6	-0.104730174
96	0x3c15bad4	0.009138782
97	0xbdcb5fa4	-0.099303514
98	0xbdaf7099	-0.08566398
99	0xbccd35d7	-0.025050087
100	0xbd97fd33	-0.07421341
101	0x3c9ef6ba	0.019404758
102	0x3be3f493	0.0069566458
103	0x3de97dd9	0.11400957
104	0x3e4d401d	0.20043989
105	0x3d63f269	0.055651102
106	0xbde8e49c	-0.11371729
107	0xbd9d28f0	-0.07673824
108	0xbdd75329	-0.105139084
109	0x3d45b7e1	0.048271064
110	0xbc817718	-0.015803859
111	0x3cb19f1a	0.02168231
112	0x3d06e241	0.032930616
113	0xbc3c6023	-0.01149753
114	0x3dae60c5	0.08514551
115	0x3e086504	0.13319784
116	0xbd93c205	-0.07214741
117	0xbbbd873a	-0.0057839425
118	0xbd3741e8	-0.044740587
119	0xbded9537	-0.11600726
120	0xbe6a9776	-0.2290934
121	0xbe786f28	-0.24261153
122	0xbe04b5d9	-0.12959994
123	0xbd875878	-0.06608671
124	0x3ac20abc	0.0014804224
125	0x3c6d4aae	0.014483137
126	0x3d02d898	0.03194484
127	0x3cf6c4b1	0.030123087
128	0xbd602607	-0.054723766
129	0xbd937aa0	-0.07201123
130	0x3beb05b2	0.00717231
131	0x3db8a9fd	0.09016798
132	0x3de338c8	0.110948145
133	0x3e155a05	0.14585121
134	0x3dd5f6ff	0.104475014
135	0x3d83724a	0.06418283
136	0x3ce45847	0.027874125
137	0xbd0a894b	-0.03382234
138	0xbe10b21d	-0.14130445
139	0xbe1a8947	-0.1509143
140	0x3b4dc7a0	0.0031399503
141	0x3adef3e0	0.0017009936
142	0x3d12cc54	0.035839394
143	0x3e2d45de	0.16921183
144	0x3d1c274b	0.03812341
145	0x3ca31d5f	0.019911466
146	0xbdd8ddc6	-0.10589175
147	0xbe3e2535	-0.18568881
148	0xbe5262bd	-0.20545478
149	0xbdc437a3	-0.09580924
150	0xbda18942	-0.07887508
151	0xbd6e67a3	-0.058204304
152	0xbd683b32	-0.056697078
153	0x3d604d83	0.05476142
154	0x3d86ef2a	0.06588586
155	0x3da3fedd	0.08007596
156	0x3cd51da0	0.026015103
157	0xbcbb8952	-0.022892628
158	0x3d1c1fd8	0.038116306
159	0x3cbadfa4	0.022811718
160	0x3d546c6c	0.05186121
161	0x3d866e4b	0.065640055
162	0x3ddf8b4e	0.10915242
163	0x3e5437a3	0.20724349
164	0x3d5cbe2d	0.053892303
165	0xbe0563a4	-0.13026291
166	0xbd8fe4bf	-0.07026052
167	0xbda248a6	-0.07924013
168	0xbd09a7f6	-0.033607446
169	0x3dd08e04	0.10183337
170	0x3c0e1796	0.0086726155
171	0x3dce1f18	0.100645244
172	0xbcc2a474	-0.023760058
173	0xbdc98e66	-0.098416135
174	0xbe289ee8	-0.16466868
175	0xbe1755a3	-0.14778762
176	0xbd8d4b07	-0.06899076
177	0xbd25b796	-0.040458284
178	0xbb0fea56	-0.0021959743
179	0xbcd82833	-0.026386356
180	0xbcb94300	-0.022614956
181	0xbc2c8919	-0.0105307335
182	0x3d59eae2	0.053202517
183	0xbc5642f2	-0.013077484
184	0x3b87f9eb	0.0041496656
185	0xbbb96a0e	-0.0056583947
186	0x3a88059f	0.0010377652
187	0x3d0bae7a	0.03410194
188	0x3df24d2f	0.11831128
189	0xbc20cedf	-0.009814947
190	0x3d44ae54	0.048017815
191	0x3e239d61	0.15978004
192	0x3de4c399	0.1117012
193	0x3c1c2017	0.009529135
194	0x3db4199b	0.08793946
195	0xbc79c128	-0.015243806
196	0x3d0e636f	0.034762796
197	0x3d16c39a	0.036807634
198	0xbd8039dc	-0.06261036
199	0x3d6401f2	0.055665918
200	0xbd78ae3d	-0.06071304
201	0xbdd83b1f	-0.105581515
202	0xbe71a272	-0.23597124
203	0xbe13f2a7	-0.14448033
204	0xbe0e7b9f	-0.13914345
205	0xbd48f843	-0.049064886
206	0xbd1c5c16	-0.038173757
207	0xbdb0de95	-0.08636204
208	0xbd8ed11e	-0.0697348
209	0xbc6c89d2	-0.014437156
210	0x3e02131c	0.12702602
211	0x3d1ddc10	0.038539946
212	0x3cfda057	0.030960245
213	0x3c64e6d1	0.013971047
214	0x3c31b752	0.01084693
215	0x3d4476db	0.047964912
216	0x3d4b461d	0.049627412
217	0xbd3250e5	-0.04353418
218	0xbc7f262e	-0.015573068
219	0x3d719e5f	0.058988925
220	0xbd96e0d3	-0.073671006
221	0xbd92fff4	-0.071777254
222	0x3d563946	0.052300714
223	0xbd5a53b4	-0.05330248
224	0x3dc1e255	0.094669975
225	0xbdf38bc4	-0.118918926
226	0xbd2ad32e	-0.041705303
227	0xbcafeb5f	-0.021474538
228	0xbbad39b7	-0.005286421
229	0xbde3bdda	-0.11120196
230	0xbe876915	-0.2644736
231	0xbdf34f20	-0.11880326
232	0xbe2cc86a	-0.16873327
233	0xbdad614b	-0.08465823
234	0xbe274b93	-0.16337423
235	0xbe3f4e34	-0.18682176
236	0xbe00cbf3	-0.125778
237	0x3c935a27	0.017987324
238	0x3e24c12f	0.16089319
239	0x3deb6982	0.114947334
240	0x3d91c1df	0.07117056
241	0xbb45b943	-0.003017024
242	0x3d33763d	0.043813933
243	0x3d143931	0.036187354
244	0x3c4e584f	0.012594297
245	0x3c31368c	0.010816228
246	0x3c949dee	0.018141713
247	0xbd6bcc93	-0.057568144
248	0xbc0e41ee	-0.008682711
249	0xbce845e3	-0.028353637
250	0xbd5b7f81	-0.053588394
251	0x3c8b8025	0.017028878
252	0xbd4ee602	-0.05051232
253	0xbc6d86aa	-0.014497438
254	0xbdf48b8e	-0.119406804
255	0xbdbdb434	-0.09262887

bias f4 [128]
0	0x3dda9f8c	0.106749624
1	0x3e0692cd	0.13141938
2	0x3d2aeb0c	0.041728064
3	0xbd960d23	-0.073267244
4	0xbdaaa4cc	-0.08332214
5	0x3e20dacb	0.15708463
6	0xbd4fd1c8	-0.050737172
7	0xbd3e8633	-0.0465147
8	0xbd543c0d	-0.05181508
9	0xbc2a701d	-0.010402706
10	0xbbf4b8cd	-0.007468319
11	0x3e4cf67f	0.20015906
12	0x3d90a1e2	0.07062127
13	0x3e15b4f5	0.14619811
14	0x3e6d7c69	0.2319199
15	0x3dc6adaf	0.09701096
16	0xbd560deb	-0.052259367
17	0x3a1992d9	0.0005858369
18	0x3dc74dd4	0.097316414
19	0x3d520fa0	0.051284432
20	0xbd570508	-0.052495033
21	0xbd4fea5b	-0.05076061
22	0x3e0a22b3	0.13489799
23	0xbd1402c1	-0.03613544
24	0x3d64d85b	0.055870395
25	0x3d5cb63d	0.053884733
26	0x3e2d8ed4	0.16949016
27	0x3e2a78c5	0.16647632
28	0x3d1f1903	0.038842212
29	0x3c67bee4	0.014144633
30	0x3d4a7730	0.049430072
31	0xbd8b64b2	-0.068063155
32	0xbcee6c0a	-0.029104251
33	0x3d32bf2c	0.043639347
34	0x3c62e64a	0.0138488505
35	0x3d9eb49e	0.07749294
36	0x3d921406	0.071327254
37	0xbd87e18e	-0.06634818
38	0x3e1960ec	0.14978379
39	0x3dc11516	0.0942785
40	0xbce27c36	-0.027647119
41	0xbd7d0063	-0.061767947
42	0xbc846668	-0.016162112
43	0x3d8d8a7f	0.06911182
44	0x3d6555ad	0.05598991
45	0xbd3dcbc5	-0.046336908
46	0x3d48ef71	0.049056474
47	0x3c3ab3df	0.011395424
48	0x3ca0f598	0.019648358
49	0x3e07c199	0.13257445
50	0x3d6f049b	0.058354
51	0x3e0ac734	0.13552552
52	0x3d3b8382	0.045779712
53	0xbd8be3cc	-0.06830558
54	0x3da52cbb	0.08065172
55	0x3e06b024	0.1315313
56	0xbce374b3	-0.027765607
57	0xbba73f6c	-0.005103996
58	0xbe031944	-0.12802607
59	0xbe376fc6	-0.17913732
60	0x3d5b9f6d	0.053618837
61	0xbc9807f0	-0.018558472
62	0xbd4b488c	-0.049629733
63	0xbd264910	-0.04059702
64	0xbd5135eb	-0.05107681
65	0x3da2a8f6	0.07942383
66	0x3db75dc5	0.08953432
67	0xbd126333	-0.035739135
68	0x3ba2770d	0.0049580396
69	0x3d2729f8	0.04081151
70	0x3dcba2a0	0.09943128
71	0xbd95c9d2	-0.07313885
72	0x3d2ed757	0.042685833
73	0xbd371053	-0.044693302
74	0xb9864ee0	-0.00025617238
75	0x3d7f9fc8	0.06240824
76	0xbda5a4be	-0.08088063
77	0x3d884fe4	0.06655863
78	0xbd4e4d25	-0.05036654
79	0x3cedd332	0.02903137
80	0x3c56f237	0.013119272
81	0x3cc5755f	0.024103818
82	0x3d825cf8	0.06365389
83	0xbc4fd6f3	-0.012685525
84	0x3d1bb139	0.03801081
85	0x3d0e384f	0.03472167
86	0x3c840700	0.01611662
87	0xbd7e814a	-0.06213502
88	0x3e0ed126	0.13946971
89	0x3da6f554	0.081522614
90	0xba9fee62	-0.0012201781
91	0xbc7733f9	-0.015088075
92	0x3e1e54a5	0.15461977
93	0x3e78f9b5	0.24314006
94	0xbb9b0fbc	-0.0047321003
95	0x3d321d37	0.043484893
96	0x3d049fbb	0.032378893
97	0x3e2acceb	0.16679733
98	0xbdc6dd6b	-0.09710201
99	0x3e197134	0.1498459
100	0x3d14ef04	0.036360756
101	0xbd1f18eb	-0.038842123
102	0x3cd8f13f	0.026482223
103	0x3da69126	0.081331536
104	0x3e0ca682	0.13735393
105	0x3d9abe6c	0.07555851
106	0xbe00d739	-0.12582101
107	0x3d26ed0b	0.040753406
108	0x3d7a5433	0.061115455
109	0x3d16ab47	0.036784437
110	0x3d965100	0.07339668
111	0x3dda94a7	0.106728844
112	0x3db66119	0.08905239
113	0xbe03b6b6	-0.12862667
114	0x3e01785a	0.12643567
115	0x3df9deb9	0.12200684
116	0x3db95445	0.09049276
117	0x3c1986ea	0.009370545
118	0xbc0853a6	-0.008320725
119	0x3da4f5eb	0.08054718
120	0xbc241ed4	-0.010017116
121	0xbb95f4a4	-0.0045762826
122	0x3e6ffa5b	0.23435347
123	0x3dd6c526	0.10486822
124	0x3d4cf565	0.050038714
125	0xbdfbfb3c	-0.123037785
126	0xbd3ec678	-0.046575993
127	0xbd932f88	-0.071868

weight f4 [10, 128]
0	0x3ce213ab	0.027597269
1	0xbe72d76d	-0.23714991
2	0x3d6a13c1	0.057147745
3	0x3dd2378b	0.102645
4	0x3dd50a91	0.10402406
5	0xbcf32749	-0.029681819
6	0xbe42c5c4	-0.19020754
7	0x3d79b7ce	0.060966305
8	0x3e6821f7	0.22669207
9	0xbe1f658d	-0.15566082
10	0x3da95717	0.08268564
11	0xbc6d979d	-0.014501479
12	0x3d8eab21	0.06966234
13	0x3e2c6421	0.16835071
14	0x3d96a29d	0.07355235
15	0x3dd7c5eb	0.10535797
16	0xbda9498d	-0.08265982
17	0xbebc4095	-0.36768022
18	0xbe792aa9	-0.2433268
19	0xbe994ffd	-0.2994384
20	0x3e155999	0.1458496
21	0xbdc186fa	-0.09449573
22	0xbeaa56df	-0.33269402
23	0x3cafdfcc	0.02146902
24	0x3e494032	0.19653395
25	0x3dd0cb66	0.10195045
26	0xbe351824	-0.1768499
27	0xbd9fec5c	-0.07808754
28	0xbe3bd24e	-0.18341944
29	0xbe8d838c	-0.27639425
30	0x3e1da768	0.15395892
31	0x3e0c6317	0.13709675
32	0xbde0fad1	-0.109853394
33	0x3df27fc3	0.11840775
34	0xbe7138a9	-0.2355677
35	0xbdd1f8d8	-0.10252541
36	0xbdf347d3	-0.11878934
37	0xbd9ea9e3	-0.07747247
38	0x3d7418b4	0.05959387
39	0x3d87ebeb	0.06636795
40	0xbe2d511a	-0.16925469
41	0x3d3cd216	0.04609879
42	0xbbb9ffdc	-0.005676253
43	0x3dba1b2b	0.09087213
44	0xbbf90e7c	-0.0076006036
45	0x3e191947	0.14951049
46	0xbe970c30	-0.29501486
47	0xbe1d476a	-0.15359274
48	0x3d85a984	0.06526473
49	0x3e0686ae	0.13137314
50	0x3d37ffc5	0.044921655
51	0x3dcf9f73	0.101378344
52	0xbe9785c2	-0.29594237
53	0x3e2919f8	0.16513813
54	0xbec46733	-0.38359985
55	0x3e349a24	0.17636925
56	0xbebc2b13	-0.36751613
57	0x3c51c823	0.012804064
58	0x3dd32cfa	0.10311313
59	0x3dcb1fc2	0.09918167
60	0xbee8d005	-0.45471206
61	0xbf0daf54	-0.55345654
62	0xbd50db23	-0.050990235
63	0x3d460a5d	0.048349727
64	0xbe5ef110	-0.21771646
65	0x3e225a03	0.15854649
66	0xbe02a507	-0.12758265
67	0x3d2f6836	0.042823993
68	0xbe19e549	-0.15028872
69	0x3dd4c8cd	0.10389862
70	0xbe7303d9	-0.23731937
71	0x3dac2f9e	0.0840752
72	0xbe3b6e49	-0.18303789
73	0xbce6518a	-0.028115053
74	0x3ca85aae	0.020551052
75	0xbec3f09f	-0.38269517
76	0xbcb5f9fc	-0.022213928
77	0xbd734974	-0.059396222
78	0x3db6d300	0.08926964
79	0xbec5e84b	-0.38653788
80	0x3dff1975	0.124560274
81	0xbea36d76	-0.3191945
82	0x3cdef96a	0.02721854
83	0x3cb46330	0.022019953
84	0x3d8e7609	0.06956107
85	0x3e185258	0.14875162
86	0x3d991eae	0.07476555
87	0x3e39802a	0.18115297
88	0x3b164dae	0.0022934484
89	0xbe5db0f9	-0.21649541
90	0xbe1150e1	-0.14191009
91	0xbe839eea	-0.2570718
92	0xbe1cda74	-0.15317708
93	0xbe0ae021	-0.13562061
94	0x3e16694d	0.14688607
95	0xbe247338	-0.16059577
96	0xbc072de2	-0.008250685
97	0x3cc41604	0.02393628
98	0x3db8f1be	0.09030484
99	0xbe48303d	-0.19549651
100	0x3c2f087c	0.010683175
101	0x3cf61f8c	0.03004434
102	0xbe89e738	-0.26934218
103	0xbeaa5eff	-0.332756
104	0xbe1fbac2	-0.15598586
105	0x3dba78d4	0.091050774
106	0x3e376d52	0.17912796
107	0xbcf2f21b	-0.02965646
108	0x3e198999	0.14993896
109	0xbe6dbf2d	-0.23217459
110	0xbe216f95	-0.15765221
111	0xbd0a2b93	-0.033732962
112	0xbf07e0f9	-0.53077656
113	0x3ad7d854	0.0016467669
114	0xbec93426	-0.392976
115	0x3e0a4457	0.13502632
116	0xbd728e3a	-0.05921767
117	0x3e1741c8	0.14771187
118	0xbd452b5e	-0.04813706
119	0x3df7cdbb	0.12099787
120	0xbe455347	-0.19270049
121	0x3d3ede8a	0.04659895
122	0xbd557a02	-0.05211831
123	0x3dc1ce93	0.09463229
124	0x3d8d9642	0.06913425
125	0x3dd61055	0.10452334
126	0x3e292073	0.16516285
127	0x3cf3e7f1	0.029773684
128	0x3da8b496	0.08237569
129	0x3d8a3a77	0.067494325
130	0x3cb63c65	0.022245595
131	0x3dc02638	0.0938229
132	0xbe905479	-0.28189448
133	0x3ea28b6d	0.31746998
134	0x3caa1115	0.020760098
135	0xbe59824f	-0.21241115
136	0x3dcf3918	0.10118312
137	0x3d9c35da	0.07627459
138	0x3d2ad0d5	0.041703064
139	0x3d1f9936	0.038964473
140	0x3cfa0242	0.030518655
141	0x3dbded6d	0.09273801
142	0xbd5b59ee	-0.05355256
143	0xbdafd777	-0.085860185
144	0x3d05a0d1	0.03262407
145	0x3db55d1b	0.08855649
146	0x3d342f15	0.043990213
147	0x3e01ae01	0.12664033
148	0xbe328f29	-0.17437424
149	0x3de4d910	0.11174214
150	0x3de7f35c	0.11325714
151	0xbe1390bd	-0.14410682
152	0xbdf657bf	-0.12028455
153	0xbe4fe8d0	-0.20303655
154	0xbddb7796	-0.107161686
155	0xbd8d3257	-0.06894367
156	0x3d8e2cb6	0.06942122
157	0x3d937df5	0.07201759
158	0x3d659f84	0.05606033
159	0xbe229d09	-0.15880217
160	0x3d267170	0.040635526
161	0x3d71fd79	0.05907962
162	0xbe2690e0	-0.16266203
163	0x3e2ee528	0.17079604
164	0x3e1bc462	0.15211633
165	0x3c8eed07	0.017447008
166	0xbe55d769	-0.20882954
167	0x3ea4a6cc	0.32158506
168	0x3d6912df	0.056902763
169	0xbe5d5355	-0.2161382
170	0x3cfafeb5	0.030639032
171	0x3e102e2e	0.14080116
172	0xbe5eaf8d	-0.21746655
173	0x3e6caa73	0.23111896
174	0xbe50adfe	-0.20378873
175	0xbd7d2bba	-0.06180928
176	0xbb96c8f2	-0.0046015913
177	0x3ee9c153	0.45655307
178	0x3e07d5cf	0.13265155
179	0x3e2b09b1	0.16702916
180	0x3db98faf	0.090606086
181	0x3e0a35c2	0.1349707
182	0x3e6bfad5	0.23044904
183	0x3d8669bb	0.06563135
184	0xbe849d27	-0.25901148
185	0xbe96201d	-0.29321375
186	0xbeaa3051	-0.33239987
187	0xbeabce02	-0.3355561
188	0x3e3a3ad6	0.18186507
189	0xbd513ff6	-0.05108639
190	0xbe51f401	-0.20503236
191	0xbdafb421	-0.08579279
192	0xbdd659c5	-0.10466341
193	0xbea5927e	-0.32338327
194	0xbe19b9f1	-0.15012337
195	0xbe39f65f	-0.1816039
196	0x3e34520f	0.17609428
197	0xbd98cdc9	-0.074611254
198	0xbe0016b6	-0.12508664
199	0x3d948f9e	0.07253955
200	0xbdbae945	-0.09126524
201	0xbc271753	-0.010198432
202	0x3e1686d8	0.14699876
203	0xbdff0e52	-0.12453903
204	0xbe4c520c	-0.19953173
205	0xbe69396e	-0.22775814
206	0xbe911cc0	-0.28342247
207	0x3e9ed901	0.31024936
208	0x3d94aef1	0.0725993
209	0xbeb9b9c9	-0.36274555
210	0xbe197a0c	-0.14987963
211	0xbbc4ab16	-0.0060018403
212	0x3e289c34	0.16465837
213	0x3d0c7caf	0.034298595
214	0xbe11d4ed	-0.14241381
215	0x3da900a8	0.08252078
216	0xbdca3776	-0.098738596
217	0x3e0a9ccb	0.13536374
218	0xbe4764a0	-0.19471979
219	0x3cc66fb5	0.024223188
220	0x3d625862	0.05526007
221	0x3e005bb4	0.12534982
222	0xbd07b01d	-0.03312694
223	0xbd0d4ba0	-0.03449595
224	0xbe413f38	-0.18871772
225	0xbe8610df	-0.26184747
226	0xbe84b7f4	-0.25921595
227	0x3e64db12	0.22349194
228	0x3e1fc9e7	0.15604363
229	0xbd66ba72	-0.05633015
230	0x3dade0ae	0.0849012
231	0xbdb51490	-0.088418126
232	0x3a0b1470	0.00053054746
233	0x3dae7338	0.0851807
234	0x3c06b2fc	0.008221384
235	0xbeb91c74	-0.3615452
236	0xbdd4c31c	-0.10388777
237	0x3e37e958	0.17960107
238	0x3dbd6ac3	0.09248879
239	0x3ae659ed	0.0017574407
240	0xbc433f8d	-0.011917007
241	0xbd9c2987	-0.07625108
242	0x3e303d17	0.17210804
243	0x3e9a2f92	0.30114418
244	0xbe8379cc	-0.2567886
245	0xbe65b9fb	-0.22434227
246	0xb98a212f	-0.00026346135
247	0xbd016eca	-0.031599797
248	0x3d04d7ea	0.032432474
249	0xbad3822a	-0.0016136814
250	0x3ecd5360	0.40102673
251	0xbe160c09	-0.14653029
252	0x3df929ba	0.12166162
253	0xbe7460bf	-0.2386503
254	0xbe6a3fca	-0.22875896
255	0xbe49b6c6	-0.19698629

bias f4 [10]
0	0xbd9b82d6	-0.07593314
1	0x3d79d2bf	0.060992
2	0x3d08f069	0.033432398
3	0xbcdb06c6	-0.026736628
4	0x3d8483bf	0.06470441
5	0x3d815d76	0.063166544
6	0xbb28fd88	-0.0025785882
7	0xbcdc05ca	-0.02685823
8	0x3d2e3784	0.042533413
9	0xbd8dcd92	-0.06923975
