mnist_full_model.pth (torch, 410743 bytes, 4 tensors)

weight f4 [128, 784]
00000000: dc95 10bd 7853 bb3b c8d8 debc 72e1 e83c
00000010: ec28 983c 1c5d 04bc 8e3b 6abc 1278 08bd
00000020: b0ba f7bb d21b 25bc 75b8 fabc b8e2 1d3c
00000030: 29ff e63c 5075 153c 90f8 b3bc fa9a f43b
00000040: 4c70 adbc 81c6 e4bc 5088 b93b ac5b c13c
00000050: a554 8cbc 9a37 c33c 3e64 c9bc ac44 87bc
00000060: 0043 1ab9 f230 ec3c db2f 033d e0dc d3bc
00000070: 503c 463c c20d bc3c 0091 02bc d4dc 533c
00000080: 4985 1dbb b68f 843d 80c2 f83d 542c a63d
00000090: 86d2 603d a03f 253d d660 823d 22ae d13d
000000a0: 3f03 eb3d e3cb ae3d ca3f f4bd 7f55 6a3d
000000b0: 9941 f63d 0e0c 0b3e 6b80 a13d f701 dc3d
000000c0: e4b5 983d 395c 8f3d b9a7 3c3d d0d0 af3d
000000d0: 00fb 563c 98a7 63bc b83d 443c 53c7 b2bc
000000e0: a083 ddbc 1a66 8cbc 80e9 8bbb 0bc6 a13d
000000f0: b4ed fc3d e49e 663d df23 833d f7e4 de3d
00000100: 6ee7 a03d bc19 8bbd 5a24 253d 697b 143c
00000110: 550c 1e3a 37d7 67be 4f63 55be 017b 6abe
00000120: 4f84 1fbe b59f 99bd 663b 9b3d 2687 19bc
00000130: 6651 63bd e823 893b f192 313d 2e03 963d
00000140: dd14 bd3c 1a84 2bbc 688f b33b 3edc f33c
00000150: e01a 4bbb 906d 193b 2ca6 d3bd 579a eb3d
00000160: bed1 ea3d 3024 873d 183e 123d 402d f739
00000170: bfc7 a23c d64e 27bd 4b97 013d ae12 163d
00000180: f4e3 9a3c 529b e4bb f75a 153c 10d7 82bb
00000190: 39eb 223d b2fa de3d 8d20 383e b7f3 833d
000001a0: ff36 103e a489 c93d ca01 933d d65f dd3b
000001b0: f761 173d 5457 7e3d bdc6 ca3d 3c12 7a3c
000001c0: 1306 85bc f0ea 443d ebb8 5abd d90e e63d
000001d0: 39f5 97bc 6184 913c 4122 01bd 2859 95bc
000001e0: f66b 25bd d4c4 2fbc 7fe8 93bc a867 d2bc
000001f0: 6791 b7bc 39d5 cfbd 4ae3 1cbd 01d9 b93c
00000200: da1f 40bd b9c1 173d e85d 333d 0936 80bd
00000210: f776 78bd c94d 46bd 6ee7 353d 1682 4cbc
00000220: e889 8d3d 016d 513d 5fc2 6e3d 8dd2 ca3d
00000230: e3fd 0fbd 9489 e5bb 7fd9 f1bd d0d1 0a3d
00000240: cb16 0dbd 72e0 40bb 712d 83bc 4187 0abc
00000250: e066 b1bc 5440 0abc 35fe 993c 3544 673d
00000260: 6a4f 493c ea35 643d ce60 ce3c 0a85 72bc
00000270: 22be c3bc 7d94 d73c 3494 46bb a616 603d
00000280: 2fcf a53c 7783 26bd 7e0f 20bd 0e72 2abe
00000290: e992 21bd 87a4 933c 28a4 0a3e 33c4 253b
000002a0: ca31 10bd 0815 c1bd e22e adbc b1e4 e23c
000002b0: e0dd 1cbd f7c9 9fbd 461a c4bc a6d2 4fbd
000002c0: 840d 2a3c bdd1 a43c 47e8 273d 5704 9c3d
000002d0: 9aa8 e13d 3555 013e 8db7 173e 21ea 093e
000002e0: 31c7 073e 6bf1 003e cf1c 043e 6870 9a3d
000002f0: 617f 7b3d e46a e03c f771 23bc c9fb 93bd
00000300: 8706 19bd a846 d03c f5c2 0cbd 1a33 a8bd
00000310: a92c 02bc eaed f33c 84a3 a5bc 3f60 25bc
00000320: c5ce 28be 0d3e 4bbe 0250 97bd 8ce0 89bd
00000330: 81f2 c43b 1e12 893d 7f0b 803d 7e31 733d
00000340: 1619 bb3d 1b61 063e 056e 7e3d 2a97 1c3e
00000350: ff5f 0a3e 1a1e 023e 0012 cf3d b622 593d
00000360: 6a91 843c f298 8abb aecc 08bc dd56 41bc
00000370: 828a 413d ddf2 0f3c 0900 d4bd 7386 d9bc
00000380: 1db0 bd3d 022f 8dbd 288c 0dbd 7725 12bd
00000390: e549 39be b04b f9bd 6381 d5bc edf2 51bd
000003a0: d26e 3c3d 63f9 373d 7478 253d 7110 5e3d
000003b0: 5854 653d ff2f e33c 10dd 643d 0bff b13d
000003c0: 67a8 e83d 884f c83d 9d73 f53d f809 753d
000003d0: ea27 5d3d d151 ac3c 19b7 fd3c f81b ed3c
000003e0: e277 ba3d 4081 1a3d b313 0a3d 0150 533d
000003f0: cba9 3ebc 5362 843d f49e 81bd f589 f93c
-0.035299167 0.0057167374 -0.027202979 0.028427813 0.0185742 -0.00807884 -0.0142964255 -0.033317633
-0.0075600967 -0.010077434 -0.030605534 0.0096365735 0.028197842 0.009122208 -0.02196911 0.0074647637
-0.021171711 -0.027926685 0.0056620017 0.023603283 -0.017130205 0.023830224 -0.024583932 -0.016512237
-0.00014711544 0.028831933 0.03202806 -0.025862157 0.012099341 0.022955779 -0.007969141 0.0129310675
-0.0024035743 0.06472723 0.12146473 0.08113924 0.05488827 0.04034388 0.06366126 0.10238291
0.114752285 0.08534982 -0.11926229 0.05721044 0.120242305 0.13578817 0.07885822 0.10742562
0.07456568 0.07000012 0.04605839 0.0858475 0.0131213665 -0.013894938 0.0119776055 -0.02182356
-0.027040303 -0.01713853 -0.0042697787 0.07899102 0.12350026 0.056303874 0.06403326 0.10883515
0.07856642 -0.06792018 0.04031787 0.009062626 0.00060290593 -0.22640692 -0.20838664 -0.22898485
-0.15577815 -0.07501165 0.07579689 -0.009370601 -0.05549755 0.0041851886 0.043353025 0.07324825
0.023081237 -0.010468507 0.005479742 0.029768106 -0.003099136 0.0023411252 -0.10334429 0.11504047
0.114657864 0.06598699 0.03570375 0.00047145225 0.019870637 -0.04084667 0.031638425 0.036638908
0.018907525 -0.0069765234 0.009115926 -0.0039929226 0.039775107 0.1088766 0.17981167 0.06442969
0.1408348 0.09840706 0.071780756 0.0067558093 0.03695866 0.062095 0.099011876 0.0152631365
-0.016238248 0.048075616 -0.053399008 0.11233301 -0.018549548 0.017763318 -0.031526808 -0.01823099
-0.040386163 -0.01072808 -0.018055199 -0.025684193 -0.0224082 -0.10148091 -0.038302697 0.022686483
-0.046905376 0.037049983 0.043790728 -0.062603064 -0.06066033 -0.048414025 0.04441016 -0.012482187
0.06911069 0.051129345 0.058290835 0.099034406 -0.035154235 -0.007004926 -0.11809062 0.0338915
-0.034445565 -0.0029430655 -0.01601288 -0.008455099 -0.0216555 -0.008438189 0.018797973 0.05646153
0.012287 0.05571548 0.025192644 -0.014802227 -0.023894373 0.026315922 -0.0030300738 0.0547091
0.020240394 -0.04065272 -0.039077275 -0.16645071 -0.039446745 0.018022789 0.13539183 0.0025293946
-0.035203733 -0.094278395 -0.02114052 0.02769694 -0.038297534 -0.078021936 -0.02393831 -0.050738
0.010379199 0.020119542 0.040993 0.07618015 0.11018486 0.1263016 0.14816113 0.1346822
0.13259579 0.12592094 0.12901615 0.07540971 0.061400775 0.02739472 -0.009975902 -0.072257586
-0.03735974 0.025424317 -0.034365613 -0.08212872 -0.007945218 0.029776532 -0.020219572 -0.010093748
-0.16485126 -0.19847889 -0.07388307 -0.06732282 0.006010354 0.06692909 0.06252193 0.05937337
0.09135644 0.1312298 0.06211664 0.1529204 0.13513182 0.12706795 0.10110855 0.05301162
0.01618262 -0.0042296583 -0.008349581 -0.011800495 0.047251232 0.00878593 -0.10351569 -0.026553368
0.092621066 -0.06893732 -0.03455749 -0.03568026 -0.18094595 -0.12172639 -0.026062673 -0.051257063
0.046004124 0.044915568 0.040398076 0.0542149 0.05598864 0.027732847 0.055874884 0.08691224
0.11360245 0.097807944 0.11984942 0.05982396 0.053993143 0.021035107 0.030971097 0.028944
0.09104897 0.03772092 0.033710193 0.05158997 -0.0116371615 0.06464066 -0.06329146 0.03046129

bias f4 [128]
00000000: 8b4d a1bd bf70 f2bc 666a 583d 583d b03d
00000010: 86e4 0f3e 2954 423d 1cce 0b3e e3c0 fa3d
00000020: 1b1f 203e d05e dd3d a2d9 a8bd 8f07 563e
00000030: 9ee3 593d 9fa4 ba3d e235 a83d 14a2 433d
00000040: c036 61bd cb01 813b 7e23 c3bb 680c 3c3d
00000050: 66ea 07bd 99b0 4bbd 6c80 083e 1b87 eabc
00000060: 7218 a93d 2492 173b 4a96 ffbb a538 a83d
00000070: 91c4 223d d0ab 0f3e 9766 163d 43ef fdbc
00000080: f484 563d 8c70 b9bd 0ea6 593d 57f2 56bb
00000090: c79a 303d 9603 5abd f0f8 dabd 3cbb 2c3c
000000a0: 11c3 163d e92e 01bc 16f1 b239 73d2 c73d
000000b0: 7624 5ebd de98 0c3d 7392 d63d 2cfe b13d
000000c0: 73b3 e3ba 0eb7 9739 baef b73d 2f03 8abd
000000d0: 3585 3b3e 4546 933c 898e 8b3d a28f 073d
000000e0: 9eea cdbc 54d7 953d 5527 6a3d 1d4c 473d
000000f0: 1725 b93d ff5e 543d d33b 46bb b28c d5bc
00000100: 4940 823d 8b31 5d3b 9391 a43d e0ab 173e
00000110: 6d85 c63d 8c04 723d e231 e43c 0546 7a3d
00000120: 92cd 17bc 54db 0cbd 852e 83bd 4007 643c
00000130: 6298 7e3d 47fb 3d3d a898 b0bc 9a6a 843c
00000140: 25ff d5bd 5184 f5bd 1c49 133e 6636 393e
00000150: 8450 6dbd 6499 0dbd a712 143d a139 0a3e
00000160: 8f67 df3d f95b 11bd eeaa 4f3c c1d5 773d
00000170: dba9 b93c 166d febc 773d a83c 47e1 443e
00000180: 1bb8 02bd 5601 c53c 0705 b33d bcba c13d
00000190: 620d d53c e938 a33d e2bb 86bc b04c 7a3d
000001a0: 4330 9bbd 391b 18bc caaa d73d 8c92 3c3d
000001b0: c0cc 88bc 27ea 883e d1de b2bd 378b a7bd
000001c0: ac89 3c3c d962 b6bd f893 a8bc bcaa a9bc
000001d0: f3fd 2f3d 93b5 97bd 98bf a13d c22e afb8
000001e0: 789e b43d 6675 dc3d 8c26 3c3e 9524 7c3c
000001f0: 33ca 94bc 0dfc c33c e0ca 973d 6c0f 3f3e
-0.07876118 -0.029594777 0.052835844 0.086054504 0.14052019 0.047443543 0.13652843 0.122438215
0.15636866 0.108091 -0.08244635 0.20901321 0.05319559 0.0911343 0.08213402 0.04776199
-0.054983854 0.0039369813 -0.0059551587 0.04591027 -0.033182524 -0.049728964 0.13330239 -0.028628876
0.08256616 0.0023127878 -0.0077998983 0.08213929 0.03973824 0.14030385 0.03671893 -0.030997878
0.052372888 -0.0905467 0.053136878 -0.0032798254 0.043116357 -0.053226076 -0.10692012 0.010542687
0.036807124 -0.007884719 0.0003413043 0.09756937 -0.05423399 0.034325473 0.10477152 0.086910576
-0.0017372206 0.0002893735 0.08981271 -0.067388885 0.18312533 0.017977843 0.06814296 0.033095963
-0.025136288 0.07316461 0.057166416 0.04865657 0.090402775 0.051848408 -0.003024806 -0.026068065
0.06359918 0.0033751454 0.080355786 0.14811659 0.09693418 0.059086367 0.027855817 0.061101932
-0.00926532 -0.034388855 -0.06405357 0.013917744 0.062157042 0.046382215 -0.021557167 0.016164113
-0.104490556 -0.11988128 0.14383358 0.18087158 -0.057938114 -0.034570113 0.0361506 0.13498546
0.10908424 -0.035488103 0.01267503 0.060506586 0.022664001 -0.031057876 0.020537121 0.19226561
-0.031913858 0.024048489 0.08741193 0.09459445 0.026007358 0.07969839 -0.016447011 0.06110829
-0.075775646 -0.009283834 0.10530622 0.046038195 -0.016699195 0.26741144 -0.08733905 -0.0818085
0.011507433 -0.089055724 -0.02057837 -0.020711295 0.042966794 -0.074076794 0.07897872 -8.3533596e-05
0.08819288 0.107645795 0.1837408 0.015389581 -0.018162822 0.023923898 0.07411742 0.18658227

weight f4 [10, 128]
00000000: 1c9e d43d 1864 353d e3b4 e9be ae40 b3be
00000010: 6b43 ffbd e1c6 03be fec7 2fbe 01d8 58be
00000020: 2573 0c3d 4b2e 5e3c 8464 633e 7a9f b8bd
00000030: 6f5a 963d 0424 d2be b459 a13d fac6 36bd
00000040: 15ce 993e 4755 db3c c1af f43c b716 f0bd
00000050: d936 203e 6740 7d3d d9b4 133e 18b9 1fbe
00000060: 4ce4 193e 8b77 043e a5e9 f6bd 7c7a 23be
00000070: 9a3e 54bd 5bb7 143d 4a87 333e 9c86 dcbe
00000080: 33ab 133e b1a1 ab3d f3c1 1f3d 341f a7bd
00000090: 205e 96bd f1e4 b8bd 3661 5b3d a3b7 84be
000000a0: df90 b63d 08dd 293d 1373 073e 823b 4ebd
000000b0: f984 d4bc 5019 803c b6e3 e1be 52bd 183e
000000c0: 7ae1 44bd a02b c53d bd66 2cbe cb44 c13d
000000d0: f1ef 9bbe a549 3ebc b2bb e2bd 72fe f6be
000000e0: e686 033c 2272 5fbe 2492 81be 971c a03d
000000f0: a3f0 32be 3818 f03b ae92 8bbd 504b 04be
00000100: 9042 873c ca18 153e f021 d53d 9f8f 1a3e
00000110: ce42 85bd 981d 673d 22ee 0bbf bae3 d73d
00000120: a425 593d 9bd9 f23d 5899 89bd a080 51bd
00000130: 0fd3 26bd 38b1 653d a493 03be 293c 5bbe
00000140: 4678 003e 3162 8bbc 5c4d e23d d96d d3be
00000150: 0517 323c 302b 3ebe 9af9 73be c7f3 353e
00000160: 82f4 45be 19e5 e8bd 3c82 c73d 915f 65bd
00000170: 85fb 83bc 4b94 a23d dfc0 8a3d 6516 42bd
00000180: 711e 233e d89e 0ebf 7829 4c3d c989 38be
00000190: 05e3 1ebe 355a 063d ead7 f73d 4e8f 91be
000001a0: 263a 06be a2d9 e8be 6b86 a03d 23e5 20be
000001b0: 3cde 9c3c d3f8 6dbd f336 4c3e f4b8 fc3d
000001c0: 41af febd cbf8 9a3c dbc2 35bd 6c86 863d
000001d0: b4a0 5fbe 43a9 473d 5ede 30bd 0eef 153d
000001e0: b7a8 373d 3922 bdbe ffbe 813d 073b 413d
000001f0: 7d8a 3d3e 4f25 1d3e ad09 2f3e 6817 d6be
00000200: dafe 8ebe 2e3c 02be d841 8cbc ebeb 61be
00000210: a992 c63d 4d02 d33d 0104 a1be 4b19 81bd
00000220: 9fa0 ad3e 667f 323e 79e0 e3be 1e2d 093e
00000230: 2523 5b3e 4966 4a3e f925 86be ee4e ac3e
00000240: b564 34bd 7607 ea3e 869c ddbd dbfe 4d3e
00000250: 26d1 b4be 5a62 64be 7ea0 30bd 4424 923d
00000260: 7cbc 22be 7898 05be e444 bb3d a907 81be
00000270: f56e e93d 5cae 5d3e 8775 10bd 5b1d c33d
00000280: 50e4 b9be 5b94 87be 9619 da3d f19c 2dbe
00000290: a45b 9bbe 8b84 3fbd d0ba 4cbe 33e9 953e
000002a0: f819 50bc 3c2e 93ba 919b d43c aeae 243e
000002b0: a73c efbd 4160 0fbe c1f0 d7bd 6735 913d
000002c0: aba5 543d 90dc e1bd aa5a 5abe b929 4bbe
000002d0: 4c30 b6be 3a03 db3e d13c 293e d7b9 3c3e
000002e0: 868d 3c3a 7852 0a3e f915 be3d 7d03 6bbe
000002f0: 92a4 d3bd 5b12 393b d5fb 77be eb29 08be
00000300: 9de4 51be 6587 81be 5b89 2fbe 8781 a03e
00000310: ee0c 6b3d 233b d1be 6bce 003e 4b27 26be
00000320: cea6 213e 8cf6 a8be 7478 183e a0d8 433c
00000330: 7cb5 dbbe faab dbbd 1f42 0d3e 0b49 8e3d
00000340: cab1 bdbd b127 a63d d281 463c cd8f 7d3b
00000350: d9c7 bfbd 315a 993d e771 ef3c 1b2c 853e
00000360: 034d 093e 0b8e cb3d bf22 cd3d 4438 3bbe
00000370: 8b2f 45bc d18b ccbd 8068 27be ec5b 0f3e
00000380: b5f5 48be 2379 c03d ab9d dabd d5e9 d53d
00000390: 5d6b eebd 86a4 4dbd 8843 36be 90d6 253e
000003a0: d029 ab3d 5104 173c 21dd 64be e47d 783d
000003b0: b3dc d9bd c0c9 6b3e 2f6e 743e a318 4cbe
000003c0: 7ad5 53bb 1e56 513e 9c56 74be b2be 6cbd
000003d0: 6e42 2c3e 1bb7 55be 713b 88bd f9dd 60bc
000003e0: e3a2 0e3d 36a6 913e b75d 8dbe 7276 a73e
000003f0: 3850 8b3e 0205 123e 65c5 253d ad31 49bd
0.103817195 0.04428491 -0.45645818 -0.35010284 -0.12464031 -0.12868835 -0.17166135 -0.21176149
0.034289498 0.013560842 0.22206312 -0.09014793 0.073414676 -0.41043103 0.07878438 -0.044623353
0.3004004 0.026774062 0.029868962 -0.117230825 0.15645923 0.061828997 0.14424457 -0.15597951
0.15028495 0.12936227 -0.12056283 -0.15964693 -0.051817514 0.036307674 0.17532077 -0.4307145
0.14420776 0.083804496 0.039003324 -0.081602484 -0.07342172 -0.09028042 0.053559504 -0.25921354
0.08914351 0.041470557 0.13227491 -0.05034972 -0.025942313 0.01563707 -0.44119042 0.1491597
-0.048066594 0.096274614 -0.16836067 0.09436949 -0.30456498 -0.011614238 -0.11070956 -0.48241
0.008027768 -0.21820882 -0.2530681 0.07817953 -0.17474608 0.007327106 -0.06815086 -0.12919354
0.016511232 0.14560238 0.10406864 0.1509385 -0.065068826 0.056424707 -0.54660237 0.10541482
0.053014413 0.11857911 -0.06718701 -0.051148057 -0.040728625 0.056077212 -0.12849289 -0.21409668
0.1254588 -0.017014595 0.110499114 -0.41294745 0.010869746 -0.18571162 -0.23825684 0.17768775
-0.19331554 -0.11371822 0.09741637 -0.055999342 -0.016111145 0.07938441 0.067750685 -0.04738464
0.15929581 -0.55711126 0.049844235 -0.18021311 -0.15516289 0.032800872 0.12101729 -0.28429645
-0.1310812 -0.4547854 0.07838138 -0.15712409 0.019148938 -0.058098625 0.19942836 0.123399645
-0.12435771 0.018917462 -0.04437528 0.06568608 -0.21838647 0.048745405 -0.043180816 0.036604933
0.044838633 -0.36940172 0.06335258 0.047175433 0.1850986 0.15346263 0.17093535 -0.41814733
-0.2792881 -0.12718269 -0.01712124 -0.22062652 0.09695942 0.10303173 -0.31448367 -0.063036524
0.33911607 0.17431411 -0.44507197 0.13396117 0.21400125 0.19765581 -0.26200846 0.3365397
-0.044041354 0.45708817 -0.1082087 0.20116751 -0.35315818 -0.22303143 -0.043121807 0.07135823
-0.15892214 -0.13046443 0.09143999 -0.25201157 0.113981165 0.21648544 -0.035268333 0.095270835
-0.36307 -0.26480374 0.106494114 -0.169544 -0.30343354 -0.046757262 -0.19993138 0.2927948
-0.012701504 -0.0011228989 0.025953086 0.1608226 -0.116814904 -0.14001562 -0.10543967 0.07090264
0.051915806 -0.11028397 -0.21323648 -0.19840135 -0.35583723 0.427759 0.16527106 0.18430267
0.00071927195 0.13508022 0.09281535 -0.2295055 -0.10334124 0.00282397 -0.2421716 -0.1329724
-0.20497365 -0.2529861 -0.1714224 0.31348822 0.057385378 -0.4086543 0.12578742 -0.16225927
0.15786287 -0.330006 0.14889699 0.011953503 -0.429119 -0.10726161 0.13794754 0.069475256
-0.09262426 0.08113039 0.0121159125 0.0038690448 -0.0936429 0.07487906 0.029229118 0.26010212
0.13408284 0.09939202 0.10016393 -0.18283182 -0.012035261 -0.09987605 -0.16348457 0.13999909
-0.1962498 0.09398105 -0.10674604 0.104449905 -0.11641572 -0.05020573 -0.17799199 0.1619513
0.083575845 0.009217338 -0.22349979 0.060666934 -0.10637798 0.2302618 0.23870157 -0.19931273
-0.0032323287 0.20443007 -0.23861164 -0.05779905 0.16822216 -0.2087063 -0.066519625 -0.013724797
0.03482331 0.2844712 -0.2761056 0.32707554 0.2720964 0.14259723 0.040471453 -0.04911964

bias f4 [10]
00000000: 4c3f 10be 2ab3 b63c 0e01 dd3d 7fb0 f4bd
00000010: 8815 e1bb 0175 943c c83d 63bd 39eb 01bc
00000020: 88e7 8abd dfc7 f6bc
-0.14086646 0.022302229 0.10791217 -0.119477265 -0.006869022 0.018122198 -0.05547884 -0.007929617
-0.06782442 -0.030124603
